…
INFO - 12/20/23 15:24:19 - 0:00:00 - Removed 0 empty sentences.
INFO - 12/20/23 15:24:19 - 0:00:00 - Removed 0 empty sentences.
INFO - 12/20/23 15:24:19 - 0:00:00 - Para Data          -       5703
INFO - 12/20/23 15:24:19 - 0:00:00 - Loading dataOld from data/valid/validData.txt.pth ...
INFO - 12/20/23 15:24:19 - 0:00:00 - Loading dataOld from data/valid/validSummary.txt.pth ...
INFO - 12/20/23 15:24:19 - 0:00:00 - Removed 0 empty sentences.
INFO - 12/20/23 15:24:19 - 0:00:00 - Removed 0 empty sentences.

DEBUG - 12/20/23 15:24:21 - 0:00:01 - Encoder: TransformerEncoder(
                                        (position_embeddings): Embedding(800, 512)
                                        (embeddings): Embedding(57885, 128, padding_idx=2)
                                        (layer_norm_emb): LayerNorm((512,), eps=1e-12, elementwise_affine=True)
                                        (attentions): ModuleList(
                                          (0): MultiHeadAttention(
                                            (q_lin): Linear(in_features=512, out_features=512, bias=True)
                                            (k_lin): Linear(in_features=512, out_features=512, bias=True)
                                            (v_lin): Linear(in_features=512, out_features=512, bias=True)
                                            (out_lin): Linear(in_features=512, out_features=512, bias=True)
                                          )
                                        )
                                        (layer_norm1): ModuleList(
                                          (0): LayerNorm((512,), eps=1e-12, elementwise_affine=True)
                                        )
                                        (ffns): ModuleList(
                                          (0): TransformerFFN(
                                            (lin1): Linear(in_features=512, out_features=2048, bias=True)
                                            (lin2): Linear(in_features=2048, out_features=512, bias=True)
                                          )
                                        )
                                        (layer_norm2): ModuleList(
                                          (0): LayerNorm((512,), eps=1e-12, elementwise_affine=True)
                                        )
                                        (pred_layer): BinaryOutputLayer(
                                          (proj): Linear(in_features=512, out_features=1, bias=True)
                                          (proj_act): Sigmoid()
                                          (criterion): BCELoss()
                                        )
                                      )
DEBUG - 12/20/23 15:24:21 - 0:00:01 - Decoder: TransformerDecoder(
                                        (position_embeddings): Embedding(602, 512)
                                        (embeddings): Embedding(11198, 512, padding_idx=2)
                                        (layer_norm_emb): LayerNorm((512,), eps=1e-12, elementwise_affine=True)
                                        (attentions): ModuleList(
                                          (0-5): 6 x MultiHeadAttention(
                                            (q_lin): Linear(in_features=512, out_features=512, bias=True)
                                            (k_lin): Linear(in_features=512, out_features=512, bias=True)
                                            (v_lin): Linear(in_features=512, out_features=512, bias=True)
                                            (out_lin): Linear(in_features=512, out_features=512, bias=True)
                                          )
                                        )
                                        (layer_norm1): ModuleList(
                                          (0-5): 6 x LayerNorm((512,), eps=1e-12, elementwise_affine=True)
                                        )
                                        (ffns): ModuleList(
                                          (0-5): 6 x TransformerFFN(
                                            (lin1): Linear(in_features=512, out_features=2048, bias=True)
                                            (lin2): Linear(in_features=2048, out_features=512, bias=True)
                                          )
                                        )
                                        (layer_norm2): ModuleList(
                                          (0-5): 6 x LayerNorm((512,), eps=1e-12, elementwise_affine=True)
                                        )
                                        (layer_norm15): ModuleList(
                                          (0-5): 6 x LayerNorm((512,), eps=1e-12, elementwise_affine=True)
                                        )
                                        (encoder_attn): ModuleList(
                                          (0-5): 6 x MultiHeadAttention(
                                            (q_lin): Linear(in_features=512, out_features=512, bias=True)
                                            (k_lin): Linear(in_features=512, out_features=512, bias=True)
                                            (v_lin): Linear(in_features=512, out_features=512, bias=True)
                                            (out_lin): Linear(in_features=512, out_features=512, bias=True)
                                          )
                                        )
                                        (pred_layer): PredLayer(
                                          (proj): Linear(in_features=512, out_features=11198, bias=True)
                                        )
                                      )
INFO - 12/20/23 15:24:21 - 0:00:01 - Number of parameters (encoder): 10972801
INFO - 12/20/23 15:24:21 - 0:00:01 - Number of parameters (decoder): 31278014
INFO - 12/20/23 15:31:45 - 0:00:00 - ============ Initialized logger ============
INFO - 12/20/23 15:31:45 - 0:00:00 - asm: False
…
INFO - 12/20/23 16:00:16 - 0:00:00 - Removed 0 empty sentences.
INFO - 12/20/23 16:00:16 - 0:00:00 - Removed 0 empty sentences.
INFO - 12/20/23 16:00:16 - 0:00:00 - Para Data          -       5703
INFO - 12/20/23 16:00:16 - 0:00:00 - Loading dataOld from data/valid/validData.txt.pth ...
INFO - 12/20/23 16:00:16 - 0:00:00 - Loading dataOld from data/valid/validSummary.txt.pth ...
INFO - 12/20/23 16:00:16 - 0:00:00 - Removed 0 empty sentences.
INFO - 12/20/23 16:00:16 - 0:00:00 - Removed 0 empty sentences.

DEBUG - 12/20/23 16:00:17 - 0:00:01 - Encoder: TransformerEncoder(
                                        (position_embeddings): Embedding(1500, 512)
                                        (embeddings): Embedding(57885, 128, padding_idx=2)
                                        (layer_norm_emb): LayerNorm((512,), eps=1e-12, elementwise_affine=True)
                                        (attentions): ModuleList(
                                          (0): MultiHeadAttention(
                                            (q_lin): Linear(in_features=512, out_features=512, bias=True)
                                            (k_lin): Linear(in_features=512, out_features=512, bias=True)
                                            (v_lin): Linear(in_features=512, out_features=512, bias=True)
                                            (out_lin): Linear(in_features=512, out_features=512, bias=True)
                                          )
                                        )
                                        (layer_norm1): ModuleList(
                                          (0): LayerNorm((512,), eps=1e-12, elementwise_affine=True)
                                        )
                                        (ffns): ModuleList(
                                          (0): TransformerFFN(
                                            (lin1): Linear(in_features=512, out_features=2048, bias=True)
                                            (lin2): Linear(in_features=2048, out_features=512, bias=True)
                                          )
                                        )
                                        (layer_norm2): ModuleList(
                                          (0): LayerNorm((512,), eps=1e-12, elementwise_affine=True)
                                        )
                                        (pred_layer): BinaryOutputLayer(
                                          (proj): Linear(in_features=512, out_features=1, bias=True)
                                          (proj_act): Sigmoid()
                                          (criterion): BCELoss()
                                        )
                                      )
DEBUG - 12/20/23 16:00:17 - 0:00:01 - Decoder: TransformerDecoder(
                                        (position_embeddings): Embedding(602, 512)
                                        (embeddings): Embedding(11198, 512, padding_idx=2)
                                        (layer_norm_emb): LayerNorm((512,), eps=1e-12, elementwise_affine=True)
                                        (attentions): ModuleList(
                                          (0-5): 6 x MultiHeadAttention(
                                            (q_lin): Linear(in_features=512, out_features=512, bias=True)
                                            (k_lin): Linear(in_features=512, out_features=512, bias=True)
                                            (v_lin): Linear(in_features=512, out_features=512, bias=True)
                                            (out_lin): Linear(in_features=512, out_features=512, bias=True)
                                          )
                                        )
                                        (layer_norm1): ModuleList(
                                          (0-5): 6 x LayerNorm((512,), eps=1e-12, elementwise_affine=True)
                                        )
                                        (ffns): ModuleList(
                                          (0-5): 6 x TransformerFFN(
                                            (lin1): Linear(in_features=512, out_features=2048, bias=True)
                                            (lin2): Linear(in_features=2048, out_features=512, bias=True)
                                          )
                                        )
                                        (layer_norm2): ModuleList(
                                          (0-5): 6 x LayerNorm((512,), eps=1e-12, elementwise_affine=True)
                                        )
                                        (layer_norm15): ModuleList(
                                          (0-5): 6 x LayerNorm((512,), eps=1e-12, elementwise_affine=True)
                                        )
                                        (encoder_attn): ModuleList(
                                          (0-5): 6 x MultiHeadAttention(
                                            (q_lin): Linear(in_features=512, out_features=512, bias=True)
                                            (k_lin): Linear(in_features=512, out_features=512, bias=True)
                                            (v_lin): Linear(in_features=512, out_features=512, bias=True)
                                            (out_lin): Linear(in_features=512, out_features=512, bias=True)
                                          )
                                        )
                                        (pred_layer): PredLayer(
                                          (proj): Linear(in_features=512, out_features=11198, bias=True)
                                        )
                                      )
INFO - 12/20/23 16:00:17 - 0:00:01 - Number of parameters (encoder): 11331201
INFO - 12/20/23 16:00:17 - 0:00:01 - Number of parameters (decoder): 31278014
INFO - 12/20/23 16:00:17 - 0:00:02 - ============ Starting epoch 0 ... ============
INFO - 12/20/23 16:00:17 - 0:00:02 - Creating new training dataOld iterator (cs) ...
…
